pretrained/trained_weights/best_GSN.pth (torch, 7931 bytes, 14 tensors)

gcn_layers.0.lin.0.weight f4 [16, 3]
000000 42 d9 9f bd 20 10 0e 3c d7 93 f3 bd 81 42 b4 bb
       -0.078051105 0.008670837 -0.118934326 -0.005501092
000010 57 39 d6 bd 19 c0 ea 3d 69 b2 10 3d ae 7c 64 bd
       -0.104601555 0.11462421 0.035326395 -0.055782966
000020 04 2a 89 bd 22 6b ad bc 7d ce 1d bd ba a6 86 bd
       -0.06697467 -0.021169249 -0.038527 -0.06574769
000030 f4 2b cf bd 4f d2 aa bc 3c 58 43 be 7f c7 8b 3d
       -0.10115805 -0.020852236 -0.19076627 0.0682516
000040 1f ad 21 bb 50 2f 91 bd 9d 9a 07 3d d3 51 77 3a
       -0.0024669839 -0.07089102 0.033106435 0.0009434495
000050 9d 93 00 3d 0f 79 99 bc 59 44 de bd 16 7f 03 3e
       0.031390775 -0.018734483 -0.1085288 0.12841448
000060 78 ff da bb 99 69 8b 3b 55 78 4c bd a3 ca 0f bd
       -0.0066832863 0.0042545316 -0.049919445 -0.03510536
000070 4a b9 6a 3c 9b 2d 88 bc f6 2d aa 3d d0 d2 cf 3d
       0.014326403 -0.016623309 0.083095476 0.10147631
000080 5f 91 43 3d ff 59 32 bc 88 f0 94 3d 4f 37 80 bd
       0.04774606 -0.010885715 0.0727244 -0.06260549
000090 5a 28 b4 bd 22 bd b6 3d e3 b1 ad 3d 83 4f 30 bd
       -0.08796759 0.08922793 0.08481195 -0.04304458
0000a0 1f fa de 3b be 33 39 3d f1 10 d0 bb 9b 18 b9 bd
       0.006804719 0.04521536 -0.006349676 -0.09037896
0000b0 21 4e 98 3d a8 d4 8e bc 4e 54 51 bd 60 18 95 3d
       0.07436777 -0.017435387 -0.05110579 0.0728004

gcn_layers.0.lin.1.weight f4 [16]
000000 71 7c 7d 3f c2 9a 7e 3f 6c b9 77 3f 82 ff 75 3f
       0.9901801 0.9945489 0.96767306 0.96093
000010 99 82 88 3f c1 2b 7a 3f 3c fc 75 3f 49 31 83 3f
       1.0664855 0.97723013 0.96088004 1.0249416
000020 8b d5 76 3f 8d e1 67 3f f4 72 85 3f 97 fc 72 3f
       0.9641959 0.9057854 1.0425706 0.9491667
000030 e4 b0 7f 3f 38 72 70 3f 61 7f 81 3f c9 d1 73 3f
       0.9987929 0.93924284 1.0116998 0.9524198

gcn_layers.0.lin.1.bias f4 [16]
000000 9b c6 be 3c 7b 75 8f 3c 5b 4e 2c 3d 4a 42 7a 3c
       0.023288062 0.017512074 0.042066913 0.015274594
000010 9d 85 51 3d f9 06 f5 b9 26 8b 19 b9 c2 88 f3 3b
       0.051152814 -0.00046735237 -0.00014643054 0.0074320743
000020 d1 3e 46 3d 8d dc b3 3b bf 28 50 3d fb b9 7c bb
       0.04839975 0.005488938 0.05082011 -0.0038563001
000030 88 5d 16 3d 15 9b d8 3c 1e 8d a5 3c c6 85 ba 3c
       0.036710292 0.026441136 0.020208891 0.022768866

gcn_layers.0.lin.3.weight f4 [16, 16]
000000 6d 83 60 3d 51 6e d4 3c 82 c6 05 3c fa a9 f6 3d
       0.054812837 0.02593151 0.008165004 0.12044139
000010 19 55 cf 3d 63 47 c0 3d 8e 64 ed bc 26 13 15 3e
       0.10123653 0.09388616 -0.028978612 0.14558086
000020 e2 9a b4 3d c8 a1 6b bb 91 77 1a 3e 2b 85 19 bc
       0.08818604 -0.0035954583 0.15084673 -0.009370129
000030 29 a3 cb 3d 65 24 72 3d d4 42 ec 3d 63 e5 95 3d
       0.0994323 0.05911674 0.11536184 0.07319143
000040 4e ea 9e bb 25 fc 53 3d 0d 32 b7 bd 90 21 59 bd
       -0.0048497086 0.051754136 -0.08945093 -0.053010523
000050 b7 8d 5d bd 5d 88 06 3d a1 5c 65 bc cb 5f b8 ba
       -0.054090228 0.03284489 -0.013999135 -0.0014066634
000060 a7 af 4f 3d 4d 54 25 bd 4c 09 25 bd 16 50 d0 bc
       0.050704625 -0.0403636 -0.04029207 -0.025428813
000070 71 66 51 3d 94 bd 72 bd 78 b0 3c bd 1a 8b 18 3d
       0.051123086 -0.059262827 -0.04606673 0.037242033
000080 e4 17 9a 3c c6 0f 95 3d 1f b1 9c bd 15 7b 2a 3c
       0.01881022 0.07278399 -0.07650971 0.010405322
000090 5b 9b 00 bd dc de 44 3d f7 0f 91 bd d1 1d 75 bd
       -0.03139816 0.048064098 -0.07083123 -0.05984289
0000a0 44 35 b1 3b ea 62 e8 bc 83 00 41 3c 76 e2 be 3c
       0.005407961 -0.028367478 0.011779907 0.023301344
0000b0 7c 47 8f 3d 21 7c 1f 3d 41 a3 be 3b b1 ef e0 3c
       0.069960564 0.038936738 0.005817801 0.027458044
0000c0 94 b1 d7 36 23 95 a6 bd 62 bf 3c be 74 20 44 be
       6.428172e-06 -0.08133914 -0.18432382 -0.19153005
0000d0 77 ef 13 be 74 74 4a be ae 45 ea bc 74 17 a0 3d
       -0.14446817 -0.19770986 -0.028597679 0.07816973
0000e0 7b b4 5e be be 2b 9d 3c 5b b7 7f 3c 44 f9 b8 3c
       -0.21748535 0.019185897 0.01560768 0.022579797
0000f0 fb 96 a0 bd ee 63 d1 3d 39 0c 8b bb e4 7b 69 3d
       -0.07841297 0.10224138 -0.0042434004 0.057002917
000100 bd 95 74 bc 30 fe 51 bd e2 cc 99 bc f0 fc 58 3b
       -0.0149282785 -0.051267803 -0.018774454 0.0033109747
000110 01 63 21 3c f1 3f 04 3b ac d9 d1 bc fe 0e 81 3d
       0.0098502645 0.0020179714 -0.02561649 0.06301688
000120 9c a3 29 bd e9 d7 58 3d 49 30 b3 3c 85 bb 92 bc
       -0.041415796 0.052940283 0.02187361 -0.017911682
000130 ee ee a1 bc 28 94 54 bd b6 78 0e 3d 50 3f 7b 3d
       -0.01976725 -0.051899105 0.034783088 0.061339676
000140 bc ed 47 bd 1d 35 f2 bb 43 5a 7f bd 3a 2c 16 bd
       -0.048810706 -0.0073915855 -0.06234194 -0.03666327
000150 ad fa 06 3d a4 0d d5 bc 34 da d7 3c ff fd cf bb
       0.032953907 -0.02600748 0.026349165 -0.0063474174
000160 2d 16 0e bd 6d 8c 9b bd ff 1c 9b 39 a0 f3 c2 bc
       -0.034689117 -0.075951435 0.00029585508 -0.02379781
000170 32 77 3b 3d 55 55 1a 3d ce 88 cb bb cf ea 4a 3d
       0.04576797 0.037679035 -0.0062113767 0.049540337
000180 3a 04 89 bd 75 35 59 3d af 62 b8 3b 81 d3 92 bc
       -0.06690259 0.053029496 0.0056269984 -0.017923119
000190 fb 8c 01 3d 1f ac 81 3d c7 8a 84 3c b0 3d d2 bc
       0.03162859 0.063316576 0.016179455 -0.02566418
0001a0 c6 e9 a7 bc 6d 52 84 3b 55 00 bc 3c 51 fe 9a bd
       -0.020497214 0.004038146 0.022949377 -0.07568038
0001b0 2a 2a a2 3d 9a 84 28 bd 35 b9 51 3d 6f f7 09 3d
       0.079181984 -0.041142084 0.051202018 0.033683237
0001c0 ec 07 ae bc 7a a5 67 3d ba 3d 8e bc fa 78 6c bd
       -0.021244012 0.056554295 -0.017363418 -0.05773256
0001d0 df 78 cc bc 69 e5 88 bd 84 a5 ac 3d 3e c5 8d 3d
       -0.02495998 -0.066843815 0.08430007 0.069223866
0001e0 46 f7 28 3d 5b 56 42 3c 09 13 af bc 6a 08 a4 3c
       0.041251443 0.011861409 -0.021371381 0.020023543
0001f0 bc 6f bc bd 55 d9 22 3d f4 05 aa bd 9e 69 ad 3c
       -0.09200999 0.039758045 -0.08301917 0.021168526
000200 5f aa 90 3b bc a2 d3 3d b0 a1 89 3d 69 92 67 bc
       0.004414841 0.103337735 0.067202926 -0.014134028
000210 2e 31 a1 3d 0c d9 63 3d 6d a5 b5 bd 1c 31 91 3d
       0.078707084 0.055626914 -0.08869443 0.07089445
000220 bd 92 ab 3d 0d a8 99 3d a2 75 8b 3d f3 fa 5d 3c
       0.083775975 0.07502756 0.06809546 0.0135486005
000230 9d 3f b0 bc ce b2 f8 bc 84 31 8e bc 6c 94 23 bd
       -0.021514708 -0.030358698 -0.017357595 -0.039936468
000240 54 60 b4 bd 66 46 96 be c2 01 24 bc 5e b2 2b 3d
       -0.08807436 -0.29350585 -0.010010185 0.04191815
000250 d3 68 12 bd a8 56 e2 bc d6 42 bd bd 4e a2 a5 be
       -0.0357445 -0.027629212 -0.092412636 -0.3235039
000260 5e a9 1c bc bd 60 0f 3d 56 bb 5b be a2 12 ae b9
       -0.009561865 0.035004366 -0.21458182 -0.0003320175
000270 32 43 ac be 60 93 63 be 15 a7 3f be 77 ab 6d be
       -0.33645016 -0.22224188 -0.1871608 -0.2320994
000280 5e 41 20 bd 9b 34 5e 3d 8b a5 0e bd 8e c4 9c 3c
       -0.03912484 0.054249387 -0.034825843 0.019136693
000290 c2 ff 5f 3d 48 f0 92 3d 05 84 26 3d 97 e8 bf 3d
       0.05468727 0.07174736 0.040653247 0.09370535
0002a0 e5 c5 a0 3d 5a 7c b1 bc 66 0e c4 3d cc f6 16 bd
       0.078502454 -0.02166574 0.09573059 -0.036856458
0002b0 8c 12 d4 3d f8 17 52 3d cb c8 af 3d 4f 35 51 3c
       0.103551 0.05129239 0.0858322 0.012769057
0002c0 c3 f4 3d 3b 39 19 ab bd f3 e9 42 bd 4f 2c cb 3c
       0.0028985 -0.0835442 -0.047586393 0.024801401
0002d0 cc 7b 15 bc 62 4e 0d 3d 4e 17 43 3d 5e 02 2a 3d
       -0.009123754 0.03449858 0.047629647 0.041506164
0002e0 c2 40 2c bd 5e 0c 76 bd c4 eb 0f bd 56 07 c7 bd
       -0.042053945 -0.060070388 -0.035136953 -0.09718196
0002f0 a6 31 b1 3c 5c b8 cc 3c 63 9f 6f 3d 16 79 68 3b
       0.02163012 0.024990253 0.058501612 0.0035472563
000300 f2 50 1a bd 6a d3 46 bd 97 fc c6 bd 96 26 7a 3d
       -0.03767485 -0.048541464 -0.097161464 0.061071955
000310 e9 77 62 bc 71 1c 70 be ce 6b 72 be b7 7e af 3d
       -0.013822534 -0.2344835 -0.23673937 0.08569091
000320 7e 4f 06 be e7 36 f5 bc c5 8c bf be a7 d2 a8 be
       -0.13116261 -0.029933406 -0.37412086 -0.32973215
000330 c9 be 31 bd 6f 97 09 be 8a f5 b5 bc 0a 1c 68 bd
       -0.043394838 -0.13436674 -0.022211809 -0.056667365
000340 28 a1 81 be b0 55 65 3d 2c 80 07 be 7a 57 1f be
       -0.25318265 0.05598992 -0.13232487 -0.15560713
000350 33 ed 83 be 3f e4 48 bd 06 f3 aa bd 34 bd bb bc
       -0.25766906 -0.049045797 -0.08347134 -0.022917368
000360 85 e5 be bd b2 a8 74 bc 15 11 28 3d 6e a2 f8 bc
       -0.09321121 -0.014932798 0.041031916 -0.03035089
000370 06 4b 6d 3b 3c aa 1f bd f5 b4 95 bd 8e 09 ac 3d
       0.0036208048 -0.038980708 -0.073099054 0.0840026
000380 5a 45 2e 3d bb bb 99 bd be 8a 53 bd b1 30 81 3d
       0.042546608 -0.0750651 -0.051645987 0.06308115
000390 ea 2e 8a 3d ab 0c ad bc 84 0b b9 3d f0 eb 98 3d
       0.067472294 -0.021124205 0.090353996 0.074668765
0003a0 b0 e4 0e 3d 7a f3 86 bc 28 a0 4e bd f8 93 38 bd
       0.034886062 -0.01647352 -0.050445706 -0.04506299
0003b0 b7 a4 0a 3c f3 f1 df 3c 6b fc 3b bb 74 b2 78 bd
       0.008462123 0.02733705 -0.0028684388 -0.06071706
0003c0 65 d5 9b 3d 57 a3 af bd f0 6c b3 ba 93 b1 47 3d
       0.07609061 -0.085760765 -0.0013689082 0.048753332
0003d0 0e 07 ed 3d b0 ee dc bc 7f 94 9f 3d e8 58 e7 3c
       0.11573611 -0.026969284 0.07791995 0.028240636
0003e0 6a 54 90 bc a8 f3 27 bd 28 79 a7 bd 28 a2 13 bd
       -0.017618377 -0.041003853 -0.081774056 -0.036043316
0003f0 e4 08 bc 3d a7 9d d5 3c 3b d6 85 bc d5 18 b1 bc
       0.09181383 0.026076151 -0.016337505 -0.021618286

gcn_layers.0.lin.4.weight f4 [16]
000000 70 75 6a 3f 18 9d 5c 3f 4c 77 5d 3f c2 29 60 3f
       0.91585445 0.86177206 0.8651016 0.8756372
000010 0b 85 5c 3f 07 98 67 3f 2c 26 66 3f a6 14 62 3f
       0.8614051 0.9046635 0.89901996 0.88312757
000020 30 f8 5f 3f 90 22 68 3f d6 2b 6c 3f 6b 4b 5e 3f
       0.8748808 0.9067774 0.9225439 0.8683383
000030 57 84 6c 3f 44 3f 62 3f 0e c8 63 3f c8 d6 68 3f
       0.92389435 0.88377786 0.88977134 0.9095273

gcn_layers.0.lin.4.bias f4 [16]
000000 41 3e 35 bd b1 ac 85 bd bc 81 a1 bd 93 8d 0d be
       -0.044248823 -0.06527079 -0.07886073 -0.13823538
000010 93 57 99 bd 8d d6 6c bd f3 17 cf bc 4b 2c a6 bd
       -0.074874066 -0.0578218 -0.025279975 -0.08113917
000020 6e 2a 81 bd 62 cd 19 bd c2 c2 38 bd 8a 2b b4 bd
       -0.06306921 -0.037549384 -0.04510761 -0.08797367
000030 6f 3b a2 bd 39 6e 3a bd 99 e9 9d bd ba 75 6e bd
       -0.07921492 -0.045515273 -0.07710571 -0.05821774

gcn_layers.0.lin.6.weight f4 [3, 16]
000000 a1 9d f4 39 06 4a 45 bb 0a 35 2a 3c 8b 09 74 3d
       0.0004665675 -0.0030103936 0.010388622 0.059579413
000010 0d ff 3b 3b b2 25 43 3d 6c 01 e6 3c ae 44 be 3c
       0.0028685958 0.04764337 0.02807685 0.023226108
000020 ff e7 f7 3b 23 3c 41 bd dd 13 c5 bc 82 71 0f bc
       0.007565498 -0.04717649 -0.024057323 -0.00875509
000030 88 0f 88 3d 52 3a bd bc 0f fe 40 3d 00 42 ee bc
       0.06643587 -0.023099098 0.04711729 -0.029084206
000040 38 50 83 bc 39 f0 22 3c 8d 5a 78 3c 82 a1 1b 3d
       -0.016029462 0.009944969 0.015158308 0.037995823
000050 2f 8f 4d bb c4 02 1b bc 6b 7d 3b bc f7 1c 30 ba
       -0.0031365862 -0.009461109 -0.011443476 -0.0006718183
000060 65 8a b1 3b fd 43 0f 3d 6d 0f b3 3c b0 a4 5b 3c
       0.0054181092 0.034976948 0.021857942 0.013405964
000070 31 1e 8b 3b 53 cc 38 3c a6 79 8b 3c d0 13 30 bb
       0.0042455425 0.011279183 0.01702578 -0.0026867278
000080 fe fb 62 3c fa b9 07 bc 03 57 8b 3c 57 51 23 bc
       0.013854025 -0.008284086 0.017009264 -0.009968123
000090 f4 72 1b bc a8 06 cd bc 94 a4 67 3c 93 76 49 3c
       -0.009487856 -0.025027588 0.01413836 0.012296337
0000a0 6c c3 96 bc f4 3a f0 3b 77 40 50 bc fd ab e8 3a
       -0.018403731 0.0073312465 -0.012710682 0.0017751452
0000b0 05 9f 05 3d 08 be a6 3b c9 b2 b2 3c 29 35 63 bc
       0.032622356 0.0050885715 0.021813767 -0.013867655

gcn_layers.1.lin.0.weight f4 [16, 3]
000000 0d 83 9a 3d 60 dd 89 bd 50 67 45 3d f4 72 59 bd
       0.07544527 -0.06731677 0.04819423 -0.053088143
000010 35 9a 05 3d 86 08 5a bd 87 ed 9c 3d 3d b8 8b bd
       0.032617766 -0.053230785 0.07662492 -0.0682225
000020 ae 83 45 3d 03 97 65 3d 66 94 0f 3e 80 ab 80 bc
       0.048221283 0.05605222 0.14021453 -0.015706778
000030 cf c6 88 bd 62 38 47 bd d5 84 4a 3d 2b c1 ff bc
       -0.06678545 -0.048637755 0.049443085 -0.03122004
000040 b6 20 93 3d b2 f8 13 be eb de 3d 3d e5 be 48 bd
       0.071839735 -0.14450338 0.04635517 -0.049010176
000050 f3 f4 1d 3d e6 81 a4 bd 3d d5 af bd b2 75 1c 3c
       0.03856368 -0.08032589 -0.08585594 0.009549545
000060 40 eb d2 ba 54 50 eb 3d f6 b1 2e bd f1 cc 83 bd
       -0.0016091838 0.11489931 -0.042650186 -0.06435574
000070 f0 46 9a bd 44 52 ce bd 41 59 04 bc 1e ff 82 3d
       -0.075330615 -0.10074285 -0.00807792 0.06396316
000080 b0 e0 19 bc 5a 12 27 3c a7 8a 58 bd 88 75 bc 3d
       -0.009391949 0.010197246 -0.052866604 0.09202105
000090 4c 18 66 bb 2c 0b b8 3d bb 7b a3 bc 69 1b 97 3d
       -0.0035109697 0.08986506 -0.01995646 0.07378275
0000a0 7d a0 71 bd 60 1d a5 3d 28 ce ab 3b 3a d3 fd bc
       -0.058990944 0.080622435 0.0052430816 -0.03098451
0000b0 6d cf 80 3d 25 07 cf bd 83 aa 57 bd ec b4 ab 3d
       0.06289563 -0.101087846 -0.052652847 0.083841175

gcn_layers.1.lin.1.weight f4 [16]
000000 f7 3f 75 3f b5 53 7d 3f 7f 9f 7e 3f fe 41 89 3f
       0.9580073 0.9895585 0.9946212 1.0723264
000010 02 b0 79 3f 73 7a 81 3f 9e 22 78 3f 77 35 80 3f
       0.9753419 1.0115494 0.9692782 1.0016316
000020 a0 0f 7b 3f 39 5b 7d 3f 20 c8 70 3f e1 1c 80 3f
       0.98070717 0.9896732 0.94055367 1.0008813
000030 f0 24 78 3f 5f ed 76 3f ff 6e 79 3f 40 01 86 3f
       0.9693136 0.9645595 0.9743499 1.0469131

gcn_layers.1.lin.1.bias f4 [16]
000000 90 6a 96 3c 64 21 9a 3b d3 5d a1 3c 64 fc 70 3d
       0.01836136 0.0047036875 0.01969806 0.05883445
000010 16 1a 73 3d 0d 50 00 3c f2 99 6e 3c ef b5 66 3d
       0.05935105 0.007831586 0.014563071 0.05632585
000020 d2 c6 4f 3d 01 25 db 3d 7f 8d e0 3c 4c 4e 0c 3c
       0.05072672 0.10700417 0.02741122 0.008563589
000030 80 7f 14 3d d9 b5 a8 3c 5a 92 43 3c 03 c9 a6 3d
       0.036254406 0.020594524 0.011936748 0.08143809

gcn_layers.1.lin.3.weight f4 [16, 16]
000000 26 c7 d6 bc 1f 5b 1d bd 17 30 33 3d 8a 64 b7 3b
       -0.026218008 -0.038416978 0.043747034 0.005596702
000010 97 a9 a5 3d e8 c8 86 bd b9 47 6b bd 52 7c 67 bd
       0.08088987 -0.065812886 -0.057441447 -0.056515045
000020 d8 1f 93 3d d7 14 97 3b a5 aa 05 3b 9d 0d 10 bd
       0.07183808 0.0046106386 0.0020395902 -0.035169233
000030 99 de c1 bd 51 62 3b 3d ec c5 39 3d 78 94 14 bd
       -0.09466285 0.04574806 0.04535477 -0.036274403
000040 2c 1e 3b 3d ee a3 72 3d b1 ee cc 3d 98 79 c1 3d
       0.04568307 0.059238367 0.10006464 0.0944702
000050 ec 69 14 bd 16 3c 40 3d bf ce 81 3d 9a 03 93 3d
       -0.036233827 0.046932302 0.06338262 0.07178421
000060 ae e7 a4 3d 1b 01 86 bd 73 0d 02 bd 8c bb 81 bb
       0.08052002 -0.065431796 -0.031751107 -0.003959125
000070 cb 67 8f ba d1 0b 38 3d b8 2e a1 bc 25 b0 ab 3d
       -0.0010940967 0.044933144 -0.019675598 0.08383206
000080 bc ca a0 3d 80 03 04 bd 70 b7 c2 3c 50 3d 6c 3d
       0.078511685 -0.0322299 0.02376911 0.05767566
000090 c0 74 89 3d 6f 2e a0 3c 57 08 b2 bc 8c d9 c8 3c
       0.067117214 0.019553391 -0.021732492 0.024517797
0000a0 5f 40 ad bc ca 79 a5 3d ab 95 b7 bc 8d 43 8e bd
       -0.021148859 0.0807987 -0.022410234 -0.06946478
0000b0 ba dd 83 bd b5 15 9c bc 27 af 2a ba 82 e1 28 bd
       -0.06438775 -0.01905332 -0.0006511085 -0.041230686
0000c0 03 7c 84 3a f6 bd 8d be 30 1b 1a bd d0 23 17 be
       0.0010107759 -0.2768399 -0.037623584 -0.14759755
0000d0 bc 31 ac bc 78 2c 82 be 72 fa 14 3c 3d e4 91 3c
       -0.021019809 -0.25424552 0.009092914 0.017809028
0000e0 a3 66 66 be f5 ab 43 be c7 e0 0c be d3 56 9c 3d
       -0.2250009 -0.19108565 -0.13757621 0.07633748
0000f0 17 28 15 be e9 62 1d 3b b5 39 39 bd a1 e3 d6 bc
       -0.14566074 0.0024015254 -0.04522105 -0.026231589
000100 b8 06 77 3c 52 ec 3f 3c 2c f6 2c 3d 68 8a ae 3d
       0.0150772855 0.011714058 0.042226955 0.08522493
000110 41 e0 b7 3b c2 fc 8f 3d dd 27 a7 3c 7a 3e b4 3d
       0.00561145 0.070306316 0.02040475 0.08800979
000120 8c f0 ef 3c 13 80 68 bd 31 10 ef bc 0f cf d0 3c
       0.029289506 -0.056762766 -0.029182525 0.025489358
000130 f5 32 0e 3b 12 44 a5 3b 89 67 59 bd 26 5c d4 bc
       0.0021697853 0.005043515 -0.053077254 -0.025922846
000140 7e 98 df bb 52 08 d7 3c 92 db 52 bd 10 66 73 bd
       -0.0068235984 0.026249085 -0.05147893 -0.059423506
000150 40 01 25 3d 2c b8 c5 3d 1e 43 15 3d b4 5c 6a 3d
       0.040284395 0.096542686 0.03644096 0.057217315
000160 10 4d b7 bc e1 66 ab bc 3f 77 69 3d e6 56 5f bd
       -0.022375613 -0.02092308 0.056998488 -0.054526232
000170 0e f2 26 bd 3b 64 a1 bb 8d 3d 65 bd 30 2f a3 bc
       -0.040758185 -0.0049252785 -0.055966903 -0.019919962
000180 92 a8 53 3d 6d 06 bf bd 3d 72 a8 bd 24 f9 cd bd
       0.051674433 -0.093273975 -0.08224914 -0.100572854
000190 7a 0c 8f 3c 24 6f bd bc a7 89 39 3d 48 a0 df 3b
       0.017462004 -0.023124285 0.04529729 0.006824527
0001a0 08 9a 81 3d cf 72 56 bd 50 96 84 3d 39 33 87 3d
       0.06328207 -0.052355584 0.06473982 0.06601567
0001b0 4d 68 af bd fd f5 28 3d 74 e7 3e bc dc 89 8e 3d
       -0.08564816 0.041250218 -0.011651862 0.06959888
0001c0 2d 97 90 3d c6 4e 92 bc 05 f6 db bc b7 b3 b4 3c
       0.070600845 -0.017859828 -0.02685071 0.022058351
0001d0 f3 ff da bc 68 90 63 bd c4 d5 c6 bd 24 1a 7a bd
       -0.026733374 -0.05555764 -0.09708741 -0.061060086
0001e0 ad a8 bb 3c ea a6 84 3c 6e d5 14 bc 54 ad 3a 3d
       0.02290758 0.016192872 -0.009084089 0.045575455
0001f0 dd 74 bb 3d 12 f5 6b bd 0e c0 18 bc e2 a1 2a 3c
       0.09153149 -0.057606764 -0.009323133 0.010414572
000200 0a 6b e9 3b 18 2b f4 bd 82 35 bc 3c eb c8 70 3c
       0.0071233558 -0.11922282 0.022974733 0.01469634
000210 01 b7 cb bd 83 ae 63 3d 04 55 29 be d5 15 32 3d
       -0.099470146 0.05558635 -0.16536337 0.043477852
000220 d0 2b 07 be 89 fb 2d bd ea 8f d9 bd b8 53 cf bd
       -0.13200307 -0.04247621 -0.106231526 -0.1012339
000230 69 dc da bc 08 16 7a 3d 8e 96 8c bd ce eb b5 bd
       -0.026716428 0.061056167 -0.068646535 -0.08882867
000240 ad 5d ea 3d 88 b3 88 bd 29 33 d8 3d ea 1f 31 bc
       0.114436485 -0.06674868 0.10556633 -0.010810832
000250 23 a5 1b 3d 1c dc 0b bb 9b 45 b6 bb 15 55 66 3d
       0.037999284 -0.0021340912 -0.005562497 0.056233484
000260 9c 9d 91 bd f3 e7 cb 3d a8 9f 86 3c f7 07 6c bd
       -0.0711014 0.0995635 0.016433552 -0.057624783
000270 01 36 cf bc 64 87 71 bc 90 35 85 3d d1 a8 c9 3d
       -0.025294306 -0.014741752 0.06504357 0.09846652
000280 e9 df 20 3d 66 60 99 bd 20 d2 6d 3d 78 7b d5 3c
       0.039276037 -0.0748909 0.05806172 0.026059851
000290 30 c9 9c bd 7c 3b fc bd 4b 03 d1 3b a8 f6 8c bd
       -0.07655561 -0.12316033 0.0063785664 -0.068829834
0002a0 e3 07 10 bd f6 ed 0b bd dd a9 87 bd 4c 7d 42 3d
       -0.03516377 -0.034162484 -0.06624196 0.047482774
0002b0 9c a8 c7 bd 03 92 8c bd e8 61 ce bc 40 17 9c bc
       -0.097489566 -0.06863787 -0.02519317 -0.019054055
0002c0 27 62 3c bd e1 18 95 bd f6 17 cb 3d 56 35 9e bd
       -0.045992043 -0.07280136 0.099166796 -0.07725017
0002d0 ba b5 eb 3d cf 35 90 3c 30 17 d2 3d 4c b0 c1 3d
       0.11509271 0.017603783 0.10258329 0.09457454
0002e0 47 ee e2 bc e7 e8 54 3d 55 eb 30 bd 7f 34 97 3d
       -0.02770151 0.051979925 -0.04319318 0.0738306
0002f0 88 a6 3c 3d 23 71 d8 bc 69 dc 55 3d 04 26 0b 3d
       0.046057254 -0.026421135 0.052212153 0.0339718
000300 7e 83 86 bd 0a af 97 bc 0e b0 32 be 48 cf df bd
       -0.06568049 -0.018516082 -0.17449972 -0.10928208
000310 1d 59 1e be ab 24 94 bd 70 6c 30 be 64 2d f8 bd
       -0.15463682 -0.07233556 -0.17228866 -0.121180326
000320 1e 03 36 3d c3 bb ce bd ca d7 88 3d c8 3d 90 bd
       0.044436567 -0.100944065 0.066817835 -0.07043034
000330 92 a3 d6 bd d2 bf 16 be 8f f1 95 bd 39 9d 73 bc
       -0.10480417 -0.14721611 -0.07321464 -0.014869028
000340 de e4 c1 bb c9 62 be 3c 3c 9a c9 3d f7 cd 6c 3d
       -0.0059171757 0.023240464 0.09843871 0.05781361
000350 0c 5d 84 3d b3 17 45 3d 09 72 fa 3b 1d 06 a1 3c
       0.0646306 0.048118304 0.0076429886 0.019656235
000360 28 bc 38 bc 73 d3 a2 3d 24 93 92 bc 29 e2 2d bd
       -0.011275329 0.07950487 -0.017892428 -0.04245201
000370 96 83 aa 3d 48 f1 9e 3c 2f a7 f7 3b c4 6d 65 3c
       0.08325879 0.019402161 0.0075577716 0.014003221
000380 23 76 98 3b 8e 9b 57 bd 41 10 d6 3d 7c ec 67 bc
       0.004652755 -0.052638583 0.10452319 -0.014155503
000390 f0 56 52 3d e4 a8 c8 bc 19 89 ca bc 63 64 6c 3c
       0.05135244 -0.024494596 -0.024723576 0.014428231
0003a0 2e 7d d5 3c 78 69 88 bd 89 d9 fb 3b 89 7f 27 bd
       0.026060667 -0.066607416 0.0076858443 -0.04089311
0003b0 17 c4 ca bd a4 d2 fd bd 77 53 84 3d ce 54 1b bd
       -0.099006824 -0.12393692 0.06461232 -0.037922673
0003c0 3e 5b be be 9d e7 5e be f3 ee 97 be e1 c1 d8 be
       -0.37178987 -0.21768041 -0.2967449 -0.42335418
0003d0 7c d8 8a be 4e fb 63 be 55 e7 ba be d3 10 a7 be
       -0.2711829 -0.22263834 -0.36504617 -0.32630023
0003e0 61 66 8f be 09 1a bf be a7 da a6 be 42 39 c4 be
       -0.28007796 -0.3732455 -0.32588693 -0.38324934
0003f0 49 0b 8c be 51 96 c8 be 7c 37 ad be df 19 be be
       -0.2735236 -0.39177182 -0.33831394 -0.37129113

gcn_layers.1.lin.4.weight f4 [16]
000000 37 15 69 3f f6 8e 6f 3f d9 36 73 3f b0 75 5b 3f
       0.91047996 0.93577516 0.95005566 0.8572645
000010 23 be 71 3f 41 f5 6a 3f 0e c8 67 3f da 27 68 3f
       0.9443075 0.9178048 0.90539634 0.9068581
000020 b6 89 64 3f 7c a3 72 3f 58 e1 60 3f 0f 29 71 3f
       0.8927263 0.9478071 0.8784385 0.94203275
000030 09 0d 78 3f 12 ca 6d 3f 59 a9 5b 3f 39 45 76 3f
       0.9689489 0.9288646 0.8580528 0.96199375

gcn_layers.1.lin.4.bias f4 [16]
000000 06 e5 a5 bc 2a 0d af bc 37 68 67 bc 08 f5 bd bd
       -0.020250808 -0.021368582 -0.014123968 -0.092752516
000010 7c 5f 50 bc af 08 41 bd 0a 2b 25 bd 7c 59 3f bd
       -0.012718078 -0.047127422 -0.04032425 -0.0467162
000020 8a 45 bf bd 51 b6 9b bc f8 b7 0b be 0d b8 8d bc
       -0.093394354 -0.019007834 -0.13644397 -0.017299676
000030 da 86 ff bc d4 12 83 bc 44 94 c9 bd 6a 66 52 3c
       -0.031192232 -0.016000189 -0.098427325 0.0128418

gcn_layers.1.lin.6.weight f4 [3, 16]
000000 de 8f cf bc e9 4a d6 bc b9 25 83 3c d5 49 2c 3a
       -0.025337156 -0.026158767 0.016009199 0.0006572281
000010 96 32 93 3c 5a 3b c4 bc cf d2 4e 3d 0c 82 da bc
       0.017968457 -0.023954082 0.05049401 -0.02667334
000020 c6 dd f6 bc bc f1 95 bb 35 d7 cc 3a c5 5a 02 bd
       -0.030135047 -0.004575936 0.0015628102 -0.031824846
000030 fb 25 8b 3b dc e0 25 3d 39 0d e3 3b b4 6b 85 bd
       0.004246471 0.040497646 0.0069290665 -0.06514683
000040 57 b0 0c 3d 5a 34 2b bd 19 c9 2d bd 1e 66 00 3c
       0.03434786 -0.041797973 -0.04242811 0.007836847
000050 53 cf 6b 3d 16 e4 ec 3c 0b 51 28 ba 6e 3e 48 3c
       0.057570767 0.028917354 -0.0006420768 0.012221916
000060 35 c0 a9 b9 78 fd 82 3d dc c1 fb bb 44 2f 2c bd
       -0.00032377397 0.063960016 -0.007683022 -0.042037264
000070 92 a6 ae bd 4c 60 d6 bc 5d e6 a4 3b 83 5a af bd
       -0.085278645 -0.026168965 0.0050323443 -0.085621856
000080 89 5f 08 3d 20 16 1b bd d5 79 af bd 4d 4f ed ba
       0.033294234 -0.037862897 -0.085681595 -0.0018105299
000090 f7 0c 3c 3d 47 ba 21 bb a8 65 e2 bc 7b 7c 26 bc
       0.0459108 -0.002467768 -0.027636364 -0.010161514
0000a0 18 dc a5 3c 36 b4 1c 3d 95 8b a5 b9 90 3e d5 bb
       0.02024655 0.0382578 -0.0003157525 -0.006507702
0000b0 8e 5b 93 bd 52 3c 13 3d ff 73 62 3b fb a6 86 3d
       -0.07195197 0.035946198 0.0034554002 0.06574818
