pretrained/trained_weights/best_GSN.pth (torch, 5335 bytes, 6 tensors)

gcn_layers.0.lin.0.weight f4 [16, 3]
-0.25069463 0.42786956 -0.56328464 0.5999623 -0.35033485 0.5224538 0.21370806 -0.5499302
-0.31565067 0.19933945 -0.20367007 -0.5662832 -0.73153716 0.009303942 -0.30119613 0.5682157
-0.13320719 -0.47328585 0.31864122 -0.23397636 0.37293133 -0.34022525 -0.4426958 0.5453938
0.008049913 -0.23263599 -0.44512114 -0.4386223 0.26329732 -0.27828678 0.42360464 0.39211366
0.39620912 0.28856468 0.5885328 -0.41853255 -0.83431864 0.53415984 0.5476058 -0.49420863
-0.19601686 0.50782657 0.080538936 -0.535448 0.32644436 -0.070293345 -0.18143255 0.63844603
00000000: 0c5b 80be b811 db3e 6c33 10bf 2197 193f
00000010: 175f b3be 88bf 053f 49d6 5a3e 3ac8 0cbf
00000020: f79c a1be a41f 4c3e e38e 50be f0f7 10bf
00000030: 0546 3bbf 906f 183c 6136 9abe 9676 113f
00000040: 7767 08be 8652 f2be f124 a33e 8097 6fbe
00000050: dbf0 be3e 0132 aebe 06a9 e2be ee9e 0b3f
00000060: c8e3 033c 2138 6ebe ebe6 e3be 1a93 e0be
00000070: e8ce 863e 9b7b 8ebe b5e2 d83e 1fc3 c83e
00000080: ecdb ca3e c0be 933e 16aa 163f e649 d6be
00000090: e895 55bf b3be 083f e52f 0c3f ea08 fdbe
000000a0: a5b8 48be ec00 023f 99f1 a43d 1f13 09bf
000000b0: b723 a73e f5f5 8fbd 74c9 39be 3371 233f

gcn_layers.0.lin.2.weight f4 [16, 16]
0.48485398 -0.28728682 -0.3355486 0.28935182 0.10559949 -0.06263641 -0.63404775 0.6209156
0.21773262 -0.15288441 0.0923058 -0.4206487 0.038342465 0.4208327 0.43430585 -0.2230568
0.040352024 0.28719252 -0.30407816 -0.3634518 -0.47064283 -0.21840705 -0.05602183 -0.18363154
0.26004884 0.03441022 -0.24692199 -0.060451657 0.28710335 -0.11521046 -0.26022953 0.17186005
0.027856242 0.17384207 -0.16185023 0.017813146 -0.050258618 0.17152713 -0.6610188 -0.3119742
0.289512 -0.31972116 0.6032089 -0.031090394 0.51908314 -0.3292595 0.43589303 0.3513615
0.42915797 -0.48050845 -0.3996092 -0.7299521 -0.24884984 -0.43450198 -0.29140052 0.33343166
-0.4017702 0.17197554 0.12952939 0.35772458 -0.39289823 0.3803274 -0.00027853422 0.13251159
0.054996748 -0.28808117 -0.54096854 -0.35227793 0.14748462 -0.5614074 -0.12719521 0.2520815
-0.2174519 0.5564749 0.097826995 -0.08334602 -0.36504906 -0.2888931 0.16902357 0.37612128
-0.52339077 -0.065538935 0.091571085 -0.41674143 0.16228606 -0.13419667 0.17015474 -0.29248986
-0.07858041 -0.36092925 0.10720782 -0.04357103 0.6081951 0.13035792 0.09318626 0.14689103
-0.07319988 0.19037023 0.18259735 -0.047660127 -0.03257598 0.5955399 0.11276514 -0.30846936
0.15580633 -0.15034266 -0.102774054 -0.5623471 0.24223825 -0.30409172 0.42343834 0.36647627
-0.12671903 0.27811545 0.11291845 -0.17963392 -0.20487945 0.080228046 0.26001915 0.2722325
0.037161596 -0.779693 -0.52861756 -0.114343874 -0.4572959 0.16072072 -0.12385825 0.28662124
-0.0687076 0.46738747 0.28314853 -0.25467527 0.3619356 0.2069398 -0.20873034 0.07885914
0.6395237 0.046652105 0.48490545 0.30076626 -0.4041405 -0.4578071 -0.024671715 -0.12690371
-0.4317182 -0.37065956 0.08984329 0.36933553 -0.041846894 -0.20825534 0.21139394 -0.283639
0.12300711 0.1215511 -1.0427222 0.07306032 -0.45666814 0.048193846 -0.12667814 0.66598874
-0.4398382 -0.053570718 -0.018428087 0.33976215 0.0367304 0.34388354 0.06573007 0.21867791
0.10449325 -0.11157883 0.28550592 -0.2840514 0.61969614 0.060273807 0.1432605 -0.1471206
0.16203503 -0.34465536 -0.5182516 0.38780692 -0.3073273 0.0636954 0.14967316 0.29736286
-0.514767 -0.015839484 -0.41252968 -0.33821213 0.13745357 0.35228017 0.3399139 -0.10739207
-0.09164862 -0.06506704 -0.71861213 -0.083438635 -0.25853246 -0.37827316 -0.10422405 0.18256468
-0.3847167 -0.062070813 -0.661868 -0.07786533 0.49639532 -0.5883736 0.008481552 -0.15199313
-0.40574205 0.19586003 -0.4096813 0.28798503 -0.4161364 0.099220335 -0.40904906 -0.46812102
-0.19123775 0.46824124 0.21310209 -0.1695543 0.2525553 -0.35442805 -0.3059935 0.34473026
0.08562782 -0.5337593 -0.17082192 0.25785878 0.4353251 -0.16639315 -0.11142953 0.18578446
0.32877028 0.09389884 -0.45857748 0.021492839 0.016479468 0.052566607 -0.010968862 -0.5014088
0.37571445 -0.30899614 0.046213873 0.050440677 0.39475715 -0.8180631 0.34471154 -0.04793235
-0.3336877 -0.108010255 -0.12352937 -0.334838 0.57113636 0.11803362 -0.108506955 0.06578972
00000000: c83e f83e 4217 93be 07cd abbe ec25 943e
00000010: 8c44 d83d 8547 80bd f450 22bf 53f4 1e3f
00000020: 4df5 5e3e bb8d 1cbe d30a bd3d 445f d7be
00000030: fd0c 1d3d 6277 d73e 565d de3e 0069 64be
00000040: 2a48 253d e60a 933e 22b0 9bbe 5b16 babe
00000050: 19f8 f0be 19a6 5fbe 2577 65bd e809 3cbe
00000060: 1f25 853e bbf1 0c3d 1ed9 7cbe 289c 77bd
00000070: 36ff 923e 76f3 ebbd ce3c 85be 15fc 2f3e
00000080: c632 e43c a803 323e 11bc 25be e0ec 913c
00000090: fbdb 4dbd cfa4 2f3e 8738 29bf 15bb 9fbe
000000a0: eb3a 943e 7eb2 a3be e66b 1a3f 48b1 febc
000000b0: a2e2 043f b494 a8be 5f2d df3e a8e5 b33e
000000c0: 98ba db3e 3405 f6be 9499 ccbe 24de 3abf
000000d0: 7ed2 7ebe 0b77 debe 7332 95be 8eb7 aa3e
000000e0: d3b4 cdbe 5b1a 303e 5aa3 043e ad27 b73e
000000f0: f529 c9be 46ba c23e 3b08 92b9 1eb1 073e
00000100: 4544 613d 607f 93be ea7c 0abf c65d b4be
00000110: 3506 173e 65b8 0fbf 763f 02be d410 813e
00000120: b6ab 5ebe 2475 0e3f 8559 c83d 51b1 aabd
00000130: b6e7 babe cce9 93be 8414 2d3e f892 c03e
00000140: f0fc 05bf 4739 86bd 9f89 bb3d 225f d5be
00000150: 512e 263e da6a 09be 0b3d 2e3e 3bc1 95be
00000160: c4ee a0bd b8cb b8be c68f db3d 8977 32bd
00000170: adb2 1b3f 8c7c 053e 70d8 be3d 9a6a 163e
00000180: d2e9 95bd 6af0 423e cdfa 3a3e 4437 43bd
00000190: 646e 05bd 4e75 183f 69f1 e63d b2ef 9dbe
000001a0: b28b 1f3e 6df3 19be 347b d2bd fbf5 0fbf
000001b0: 4e0d 783e e9b1 9bbe e9cc d83e c7a2 bb3e
000001c0: a2c2 01be 2665 8e3e ca41 e73d f4f1 37be
000001d0: ebcb 51be 9a4e a43d 3b21 853e 0f62 8b3e
000001e0: c236 183d f699 47bf 7b53 07bf 1f2d eabd
000001f0: b022 eabe f993 243e 65a9 fdbd 05c0 923e
00000200: 92b6 8cbd 694d ef3e d8f8 903e cc64 82be
00000210: 9f4f b93e 07e8 533e 68bd 55be e780 a13d
00000220: d3b7 233f 4716 3f3d 8745 f83e 09fe 993e
00000230: 81eb cebe b165 eabe 561c cabc 0cf3 01be
00000240: 2b0a ddbe 17c7 bdbe c2ff b73d 8c19 bd3e
00000250: a667 2bbd e340 55be a777 583e 2239 91be
00000260: 27eb fb3d c8ef f83d ec77 85bf a6a0 953d
00000270: 68d0 e9be e966 453d eab7 01be 3d7e 2a3f
00000280: 7932 e1be f86c 5bbd 80f6 96bc 4ef5 ad3e
00000290: 9e72 163d 8111 b03e 7d9d 863d 1aed 5f3e
000002a0: 8f00 d63d 7183 e4bd d52d 923e 2f6f 91be
000002b0: 68a4 1e3f abe1 763d e1b2 123e c8a6 16be
000002c0: 83ec 253e ab76 b0be 23ac 04bf a18e c63e
000002d0: 015a 9dbe bc72 823d ec43 193e f23f 983e
000002e0: c5c7 03bf cec1 81bc 1737 d3be 242a adbe
000002f0: a1c0 0c3e 115e b43e 3209 ae3e 60f0 dbbd
00000300: 46b2 bbbd de41 85bd f7f6 37bf e0e1 aabd
00000310: 5e5e 84be 05ad c1be 6b73 d5bd 3cf2 3a3e
00000320: 96f9 c4be f73d 7ebd 2e70 29bf dc77 9fbd
00000330: 8727 fe3e a79f 16bf 35f6 0a3c 16a4 1bbe
00000340: 6cbd cfbe 888f 483e bfc1 d1be c672 933e
00000350: d50f d5be 0834 cb3d e16e d1be 8fad efbe
00000360: d4d3 43be 51bd ef3e 6f37 5a3e a49f 2dbe
00000370: ee4e 813e 9877 b5be 2eab 9cbe 7c80 b03e
00000380: a35d af3d 73a4 08bf f1eb 2ebe 1106 843e
00000390: eee2 de3e f762 2abe 2a35 e4bd 483e 3e3e
000003a0: 9454 a83e 094e c03d abca eabe c011 b03c
000003b0: f3ff 863c 1550 573d beb6 33bc 545c 00bf
000003c0: a55d c03e be34 9ebe c24a 3d3d e29a 4e3d
000003d0: 9c1d ca3e 956c 51bf 087e b03e b654 44bd
000003e0: 1dd9 aabe 7b34 ddbd f7fc fcbd e36f abbe
000003f0: fe35 123f 9cbb f13d e538 debd c3bc 863d

gcn_layers.0.lin.4.weight f4 [3, 16]
-0.06715276 -0.43186173 0.8010574 0.8717435 1.0222123 0.9441317 0.83766204 0.6006519
0.554242 -0.55367845 -0.3777933 -0.3089904 1.3514678 -0.8406044 0.6608486 -0.5522222
-0.5381696 -0.7022448 -0.16685508 0.7617615 -0.022009572 0.13737836 -0.10445607 -0.21611479
-0.22871834 -0.18147247 0.2936914 -0.08482052 -0.49376595 0.70197517 0.27280405 -0.14346233
0.13773198 -0.47963044 0.6298626 -0.33938876 -0.9236687 -0.28710306 0.29670894 0.022741634
-0.4464742 -0.84634733 -0.27945408 0.939778 0.69141704 -0.3386131 0.13458192 -0.118164994
00000000: 6387 89bd fb1c ddbe 1912 4d3f 952a 5f3f
00000010: dad7 823f 9db2 713f 0571 563f 53c4 193f
00000020: cee2 0d3f dfbd 0dbf 206e c1be fd33 9ebe
00000030: e6fc ac3f da31 57bf 602d 293f 6f5e 0dbf
00000040: 7cc5 09bf 51c6 33bf 0fdc 2abe cd02 433f
00000050: 6b4d b4bc eaac 0c3e 10ed d5bd 324d 5dbe
00000060: 2435 6abe ebd3 39be b85e 963e 61b6 adbd
00000070: e4ce fcbe a5b4 333f f9ac 8b3e cae7 12be
00000080: 9d09 0d3e 1f92 f5be ad3e 213f 5dc4 adbe
00000090: 8d75 6cbf 2cff 92be 3cea 973e aa4c ba3c
000000a0: 4498 e4be 38aa 58bf 9b14 8fbe 4a95 703f
000000b0: b500 313f b25e adbe d8cf 093e 7d00 f2bd

gcn_layers.1.lin.0.weight f4 [16, 3]
0.5756614 -0.2578859 0.25910035 -0.5158638 0.3123605 -0.12994897 0.20896226 -0.3671176
0.11541838 0.14819247 0.3505597 -0.1072612 -0.3096046 -0.2505331 0.52383196 -0.16189812
0.46168432 -0.5896937 0.1797225 -0.38724488 0.08308621 -0.4875099 -0.21701261 0.2821039
-0.21130852 0.5094218 -0.09732596 0.20739672 -0.3067015 -0.58034223 -0.09310629 0.51340896
0.060376674 -0.060612485 -0.25577623 0.5068867 0.07268894 0.29440117 -0.21630387 0.51687855
-0.39440233 0.4652393 0.12960824 -0.30443102 0.38572192 -0.6860176 -0.08156028 0.16632567
00000000: 8c5e 133f 9f09 84be cda8 843e a60f 04bf
00000010: b7ed 9f3e 5811 05be 34fa 553e d7f6 bbbe
00000020: 7960 ec3d c4bf 173e 907c b33e c3ab dbbd
00000030: 7e84 9ebe e045 80be da19 063f 9fc8 25be
00000040: e361 ec3e 2bf6 16bf 2d09 383e f644 c6be
00000050: 1a29 aa3d e69a f9be 8e38 5ebe ec6f 903e
00000060: 4361 58be 7869 023f d552 c7bd ce5f 543e
00000070: fb07 9dbe 4f91 14bf 83ae bebd c56e 033f
00000080: 884d 773d cc44 78bd 1af5 82be 54c3 013f
00000090: f0dd 943d c0bb 963e c37e 5dbe 2752 043f
000000a0: 1aef c9be d833 ee3e 06b8 043e 62de 9bbe
000000b0: 587d c53e d99e 2fbf 1309 a7bd 4751 2a3e

gcn_layers.1.lin.2.weight f4 [16, 16]
-0.14502329 -0.6260605 0.08382779 0.11382152 0.4230224 -0.39343423 -0.43569636 -0.09834815
0.24447967 -0.07727132 -0.04718409 -0.22733203 -0.32381105 0.02700906 0.21556914 0.0016947169
0.09456534 0.13609906 0.35427365 0.3922371 -0.14988019 0.23200814 0.33913642 0.44647658
0.2763136 -0.25571835 -0.40199038 -0.27292937 -0.07000706 0.006916408 -0.21648535 0.15684429
0.37171876 -0.3356377 0.10187542 0.20896731 -0.07406128 -0.046228647 0.18052192 0.31442836
-0.13384841 0.590351 -0.16142955 -0.3699562 -0.35345054 -0.07967788 -0.16856615 0.1451781
-0.0163517 0.35931948 -0.1709751 -0.06338388 -0.14297761 -0.16668032 0.031843722 0.10270095
-0.50488406 -0.18767323 0.30397725 0.4275337 -0.022287237 0.05722642 -0.07322285 -0.6109941
-0.11493463 0.10355754 0.24452047 0.30312446 0.10019035 0.3134974 0.03345716 0.2897676
0.029627938 -0.46176967 -0.20357507 0.03653599 0.22698091 -0.06962879 -0.37932855 -0.100874245
-0.52320457 -0.089006886 -0.12440702 -0.43275768 0.07667485 0.66770124 0.26596752 0.030299755
-0.06526521 -0.048051946 -0.2352913 -0.07480013 -0.12288963 0.16689263 -0.08481989 -0.19595498
0.15785024 -0.6198314 -0.25635812 -0.32440087 -0.22304437 -0.017101252 0.35090944 -0.09379065
0.36252686 -0.16526577 0.35993358 0.27669913 -0.25294358 0.3178589 -0.09127669 0.37709507
0.20557179 0.31517613 -0.007838408 -0.28556788 -0.023515094 -0.37187836 -0.2805124 -0.33287495
0.2153839 0.35407233 0.20084754 0.22947341 0.19133434 -0.45382786 0.2950321 -0.28193828
0.14672114 0.0030789683 0.40024427 -0.10796879 -0.6116041 0.291244 -0.2947388 0.06957814
-0.1100543 0.15853556 -0.2569199 -0.40014744 -0.15547332 0.34181735 -0.27758655 -0.57098866
0.53668994 -0.41949883 0.6238951 -0.40482178 0.14840235 -0.1783739 0.061804876 -0.079599656
-0.26110965 0.3082178 0.1442799 -0.08947433 -0.30800593 -0.13704969 0.20579985 0.5636855
0.20194045 -0.38042402 0.13675427 0.26537576 -0.26638559 -0.33479893 -0.05073908 -0.41636923
-0.13934098 0.096736945 -0.78480697 0.31661758 -0.28373018 -0.4806661 -0.4751071 0.002882331
-0.26053387 -0.6291597 0.32664543 -0.033582937 0.25675264 0.22321723 0.39676878 0.6603397
0.03064391 0.12829149 -0.19033982 0.108003624 0.37802544 -0.2404509 0.2162438 0.119309925
0.010753192 0.09382698 -0.04833299 -0.55690247 -0.24243903 -0.37158445 -0.21424596 -0.35484168
0.05443948 0.1386651 0.16918498 0.23429704 -0.60330397 -0.27117208 0.33952653 0.1762972
-0.20879874 0.15584168 0.18449728 0.2277094 0.6631399 -0.04412966 -0.13563982 -0.1558556
-0.40168026 0.42899784 0.019154236 -0.13860568 0.27021164 -0.04571515 -0.24769236 -0.21875958
-0.03263511 -0.51794124 0.385734 0.22815831 -0.015490949 0.039412074 -0.2681263 0.0031916734
0.26493466 -0.42942578 0.22222619 0.07648493 -0.25141683 -0.53756326 0.41011816 -0.21077693
-0.16209508 0.32652214 -0.4625107 -1.499221 0.25702545 -0.8643142 -0.91138685 -0.120832235
-0.33460066 -1.5086406 -0.23961338 -0.44411984 -1.0227911 -0.5234392 -0.10907749 -0.18338782
00000000: fc80 14be 8045 20bf e8ad ab3d 421b e93d
00000010: 6496 d83e 3670 c9be 9813 dfbe c16a c9bd
00000020: e158 7a3e 6d40 9ebd 1b44 41bd bac9 68be
00000030: 90ca a5be 1b42 dd3c 28be 5c3e 4321 de3a
00000040: 79ab c13d 8d5d 0b3e 5b63 b53e 4dd3 c83e
00000050: 317a 19be 8b93 6d3e 4aa3 ad3e 9498 e43e
00000060: fa78 8d3e 84ed 82be afd1 cdbe 66bd 8bbe
00000070: dd5f 8fbd 09a3 e23b 56ae 5dbe ca9b 203e
00000080: ec51 be3e b4d8 abbe 0fa4 d03d 87fb 553e
00000090: 71ad 97bd 405a 3dbd bdda 383e c1fc a03e
000000a0: 8f0f 09be 3e21 173f ca4d 25be e66a bdbe
000000b0: 78f7 b4be 282e a3bd 9b9c 2cbe 91a9 143e
000000c0: 00f4 85bc b9f8 b73e 1914 2fbe 68cf 81bd
000000d0: b968 12be 3fae 2abe 906e 023d e054 d23d
000000e0: 1540 01bf 692d 40be e8a2 9b3e b2e5 da3e
000000f0: b993 b6bc 4066 6a3d ddf5 95bd 1c6a 1cbf
00000100: d962 ebbd fa15 d43d 9363 7a3e 2133 9b3e
00000110: 9930 cd3d bb82 a03e 600a 093d 6b5c 943e
00000120: 4ab6 f23c 136d ecbe fc75 50be c3a6 153d
00000130: af6d 683e 8a99 8ebd 5a37 c2be 2897 cebd
00000140: bcf0 05bf 3e49 b6bd 1cc9 febd 6a92 ddbe
00000150: b407 9d3d 78ee 2a3f e52c 883e 3137 f83c
00000160: c4a9 85bd 1ed2 44bd 34f0 70be d030 99bd
00000170: 8fad fbbd e7e5 2a3e 0db6 adbd 6ca8 48be
00000180: 7ea3 213e 45ad 1ebf 5f41 83be df17 a6be
00000190: be65 64be ed17 8cbc 67aa b33e 5015 c0bd
000001a0: 1f9d b93e 6e3b 29be 3749 b83e 82ab 8d3e
000001b0: d281 81be 67be a23e 46ef babd 9b12 c13e
000001c0: 6981 523e c45e a13e ab6c 00bc f435 92be
000001d0: baa2 c0bc d766 bebe 529f 8fbe 966e aabe
000001e0: 998d 5c3e f848 b53e faaa 4d3e 14fb 6a3e
000001f0: 26ed 433e 205c e8be 730e 973e 375a 90be
00000200: 113e 163e 84c8 493b d1ec cc3e be1e ddbd
00000210: 1692 1cbf ef1d 953e 01e8 96be fc7e 8e3d
00000220: 2664 e1bd 2557 223e 018b 83be 20e0 ccbe
00000230: 6634 1fbe af02 af3e d31f 8ebe 502c 12bf
00000240: 8364 093f 8dc8 d6be 97b7 1f3f cd44 cfbe
00000250: c9f6 173e a6a7 36be 1c27 7d3d 2505 a3bd
00000260: 2ab0 85be b9ce 9d3e 1cbe 133e 513e b7bd
00000270: f4b2 9dbe c156 0cbe 32bd 523e b14d 103f
00000280: 7ac9 4e3e f0c6 c2be 5009 0c3e 55df 873e
00000290: b163 88be c46a abbe c8d3 4fbd 592e d5be
000002a0: 67af 0ebe 051e c63d 1ce9 48bf b31b a23e
000002b0: 1545 91be de19 f6be 3d41 f3be 7de5 3c3b
000002c0: b264 85be 9c10 21bf 123e a73e 438e 09bd
000002d0: 1575 833e 0f93 643e 4725 cb3e 060c 293f
000002e0: f008 fb3c d85e 033e 71e8 42be 0131 dd3d
000002f0: 8d8c c13e c338 76be 046f 5d3e c358 f43d
00000300: 282e 303c 5c28 c03d d0f8 45bd 2991 0ebf
00000310: f041 78be 5140 bebe 4b63 5bbe cfad b5be
00000320: effb 5e3d 39fe 0d3e d43e 2d3e 90eb 6f3e
00000330: 2172 1abf 11d7 8abe 6cd6 ad3e 4187 343e
00000340: 56cf 55be f694 1f3e dbec 3c3e a72c 693e
00000350: 89c3 293f 4dc1 34bd 2ae5 0abe 9c98 1fbe
00000360: 09a9 cdbe 9ba5 db3e 58e9 9c3c a6ee 0dbe
00000370: 2e59 8a3e cf3f 3bbd 11a3 7dbe 8302 60be
00000380: 65ac 05bd cc97 04bf ed7e c53e 55a2 693e
00000390: c0cd 7dbc 8e6e 213d da47 89be 652b 513b
000003a0: 84a5 873e b2dd dbbe 438f 633e 22a4 9c3d
000003b0: b5b9 80be bf9d 09bf 02fb d13e e8d5 57be
000003c0: 41fc 25be e92d a73e 34ce ecbe 79e6 bfbf
000003d0: d798 833e b243 5dbf a650 69bf e476 f7bd
000003e0: c750 abbe 231b c1bf 365d 75be ad63 e3be
000003f0: d2ea 82bf 1d00 06bf 0564 dfbd 04ca 3bbe

gcn_layers.1.lin.4.weight f4 [3, 16]
-0.4070686 -0.38028482 0.37416053 0.5658814 0.7311082 0.34142378 0.96856785 -0.776184
-0.23683833 0.38060084 0.41418293 -0.508772 -0.14870912 0.85985667 0.924393 -1.7617288
-0.06729216 -0.23279817 -0.0059601353 0.24139935 0.3497587 -0.1388059 0.044333737 0.098064005
0.30438384 -0.07138399 -0.2452034 -0.003777837 -1.0534419 -0.07892997 0.2966501 -0.18603055
0.51033074 -0.21705237 -0.9902419 -0.5134408 -0.082212575 -0.96283007 -0.063587785 0.4579383
0.4437112 0.591381 -0.53985345 -0.2266941 -0.682987 0.5200806 -0.19044676 1.5711133
00000000: 4c6b d0be b1b4 c2be f891 bf3e 9add 103f
00000010: e829 3b3f 19cf ae3e 10f4 773f ffb3 46bf
00000020: bf85 72be 1dde c23e c90f d43e e23e 02bf
00000030: 3447 18be 911f 5c3f 05a5 6c3f 5480 e1bf
00000040: 79d0 89bd a562 6ebe 3d4d c3bb 6431 773e
00000050: 9313 b33e 2223 0ebe 4b97 353d c8d5 c83d
00000060: 33d8 9b3e c531 92bd 9a16 7bbe 9695 77bb
00000070: 2fd7 86bf 09a6 a1bd 86e2 973e cb7e 3ebe
00000080: 09a5 023f fa42 5ebe 7e80 7dbf db70 03bf
00000090: 115f a8bd 087c 76bf 503a 82bd e476 ea3e
000000a0: 1d2e e33e bf64 173f d633 0abf 8022 68be
000000b0: 3cd8 2ebf 0124 053f 7a04 43be 3e1a c93f
